IDA_ML_practice/2021.09.23/cifar_net.pth (torch, 216129 bytes, 12 tensors)

conv1.weight f4 [6, 3, 5, 5]
0	0xbd1ba166	-0.03799572
1	0xbe03f91a	-0.12887993
2	0x3bb2d05f	0.0054569687
3	0x3d691b38	0.056910723
4	0xbcb7e332	-0.022447202
5	0xbdfc9e2e	-0.12334858
6	0xbe270f3d	-0.16314407
7	0xbd9c90a6	-0.07644777
8	0x3e439b1d	0.1910214
9	0x3df115f9	0.11771769
10	0x3afd07ea	0.0019304727
11	0xbe960f86	-0.29308718
12	0xbdf71652	-0.12064804
13	0x3e21cfa2	0.15801862
14	0x3e135c55	0.1439069
15	0x3d9301ed	0.07178102
16	0xbdb7782d	-0.089584686
17	0xbea69962	-0.32538897
18	0xbd5a95c9	-0.053365503
19	0x3e85cc73	0.26132545
20	0x3cfcb4e6	0.030847978
21	0xbd4e1e21	-0.050321702
22	0xbe4e8777	-0.20168863
23	0xbce94524	-0.028475352
24	0x3e54e3d9	0.20790042
25	0xbd816e3d	-0.063198544
26	0xbe64f31a	-0.22358361
27	0xbd190ffe	-0.037368767
28	0x3da7f322	0.08200671
29	0xbcc983ff	-0.024599073
30	0x3c4c6a77	0.012476555
31	0xbe87b7fe	-0.26507562
32	0x3d084d68	0.033276945
33	0x3e8c09ab	0.27351126
34	0x3db33945	0.08751158
35	0x3d499637	0.04921552
36	0xbe53d36a	-0.20686117
37	0xbe72e162	-0.23718789
38	0x3e81a782	0.2532311
39	0x3e856359	0.2605236
40	0x3da24901	0.07924081
41	0xbe08a245	-0.13343151
42	0xbe934a08	-0.2876742
43	0x3e47c38b	0.19508187
44	0x3ec18c61	0.37802413
45	0x3e3328ca	0.17496029
46	0xbd3b5f0c	-0.04574494
47	0xbd84d3c8	-0.064857066
48	0xbc1af341	-0.00945741
49	0x3e482b03	0.19547658
50	0xbe5c5ab5	-0.21518977
51	0xbd84275b	-0.06452819
52	0x3caff7db	0.021480491
53	0xbc5c8090	-0.013458386
54	0x3d9982d4	0.074956566
55	0xbde8127c	-0.113316506
56	0xbe75950f	-0.23982643
57	0xbbe34aa7	-0.0069363895
58	0x3e333860	0.17501974
59	0x3dde4da7	0.10854655
60	0xbb967b4c	-0.004592335
61	0xbea290e6	-0.31751174
62	0xbe44220b	-0.19153611
63	0x3e811be4	0.2521659
64	0x3e51e253	0.20496492
65	0x3e25280d	0.1612856
66	0xbe864804	-0.2622682
67	0xbe0fce4e	-0.14043543
68	0x3bbcb5dd	0.0057589845
69	0x3e429d81	0.19005395
70	0x3e22c686	0.15896043
71	0xbcd19a18	-0.025586173
72	0xbe5f6ff8	-0.21820056
73	0xbdc590bf	-0.09646749
74	0x3e82cd79	0.25547388
75	0xbe32fd6e	-0.17479488
76	0xbe1a5006	-0.15069589
77	0xbce7c840	-0.028293729
78	0xbdd9dbb1	-0.10637606
79	0xbd8534cf	-0.06504213
80	0xbd2f152c	-0.0427448
81	0xbbe5a211	-0.007007845
82	0xbe012ed3	-0.12615518
83	0xbdce1817	-0.100631885
84	0xbe0fa496	-0.14027628
85	0xbe890a09	-0.2676547
86	0xbe4c2e7f	-0.19939612
87	0xbe88ddac	-0.26731622
88	0xbeb7f856	-0.35931653
89	0xbea2236a	-0.31667644
90	0xbe603ddf	-0.21898602
91	0xbe84bff7	-0.25927708
92	0xbe470a9d	-0.19437642
93	0xbdfa4fa2	-0.1222222
94	0xbe34e691	-0.17666079
95	0x3e214162	0.15747598
96	0x3e1b4e35	0.15166552
97	0x3e33850f	0.17531227
98	0x3e65d075	0.22442801
99	0x3e9c7789	0.30559948
100	0xbd31f4fd	-0.04344653
101	0x3ce0b36d	0.027429307
102	0x3dcb8615	0.099376835
103	0x3de9b422	0.11411311
104	0x3e39332f	0.18085931
105	0xbc8f14b2	-0.017465923
106	0x3d04d811	0.03243262
107	0x3aaefe4c	0.0013350933
108	0x3dcdd6e3	0.10050752
109	0xbd0decdd	-0.03464972
110	0xbd8daaff	-0.069173805
111	0xbe835986	-0.25654238
112	0xbe7cfceb	-0.24705856
113	0xbe63212a	-0.2218062
114	0xbd959da0	-0.07305455
115	0xbd476338	-0.048678607
116	0xbd9b48bb	-0.075822316
117	0xbd97a784	-0.07404998
118	0xbe1f3be4	-0.1555019
119	0xbe031200	-0.12799835
120	0x3dcf9e88	0.10137659
121	0x3e8cacde	0.27475637
122	0x3e94d6c2	0.29070097
123	0x3e5e1e2e	0.216912
124	0x3e806741	0.25078776
125	0x3de11855	0.10990969
126	0x3db858e2	0.09001328
127	0x3e7166d7	0.23574387
128	0x3df08957	0.117449455
129	0x3e513bc7	0.2043296
130	0x3e15070e	0.14553472
131	0x3e69c1f3	0.22827892
132	0x3d04a62b	0.032385033
133	0x3e1dcae5	0.1540943
134	0x3d4d2614	0.050085142
135	0xbd46995f	-0.04848611
136	0xbdce4dc3	-0.100734256
137	0xbe0fc05c	-0.14038223
138	0xbd2f10ab	-0.042740505
139	0xbdf55dce	-0.119807824
140	0x3ce47088	0.02788569
141	0xbc24cdc3	-0.010058823
142	0x3dca3754	0.09873834
143	0xbda7b569	-0.08188898
144	0x3e2981ce	0.16553423
145	0x3e306e5c	0.17229599
146	0x3e369a29	0.17832245
147	0x3e9d0cc5	0.30673805
148	0x3ea8b348	0.3294928
149	0x3ea79a71	0.32735017
150	0x3e083811	0.13302638
151	0x3e44ba2a	0.19211641
152	0x3e224b75	0.15849097
153	0x3d8ebbb6	0.06969397
154	0x3e6bd95d	0.23032136
155	0x3e80c874	0.25152934
156	0x3e2b1ac3	0.16709428
157	0x3e88f78d	0.26751366
158	0x3c39f018	0.011348747
159	0x3d8318c7	0.0640121
160	0x3e2bb333	0.16767578
161	0x3e9d43bc	0.3071574
162	0x3e2204ea	0.15822187
163	0x3c59758b	0.013272653
164	0x3c643870	0.013929471
165	0x3c9cca83	0.019139534
166	0x3dbc5076	0.09195034
167	0xbdaccc59	-0.08437414
168	0xbe4e7b94	-0.20164329
169	0xbda6fd41	-0.08153773
170	0xbe423e8d	-0.18969174
171	0xbe81b2db	-0.25331768
172	0xbe83ddc1	-0.25755122
173	0xbeaeb522	-0.34122568
174	0xbe2453ac	-0.16047543
175	0xbd93c56a	-0.07215388
176	0x3c798180	0.015228629
177	0x3da21e4b	0.07915934
178	0xbd3e8b7a	-0.046519734
179	0xbd74d085	-0.059769172
180	0xbdcd55a8	-0.10026103
181	0xbdb2776f	-0.087141864
182	0xbd79a398	-0.06094703
183	0xbcfda2a5	-0.030961344
184	0x3cfe0728	0.031009272
185	0xbc655d3f	-0.013999282
186	0x3e24f5ca	0.16109386
187	0x3e159e6d	0.14611216
188	0x3d0e5d51	0.034756962
189	0xbdf22eba	-0.11825319
190	0xbe31ac01	-0.1735077
191	0xbdc74af5	-0.09731094
192	0xbe0c351d	-0.13692136
193	0xbde63b7a	-0.11241813
194	0xbe3748c2	-0.17898849
195	0xbea03350	-0.31289148
196	0xbe887dfe	-0.26658624
197	0xbd8a07fc	-0.06739804
198	0xbd8d0411	-0.06885541
199	0xbe705f73	-0.23473911
200	0xbddf00e0	-0.10888839
201	0x3d91d12f	0.07119977
202	0x3d46f946	0.04857757
203	0x3daf1302	0.08548547
204	0x3c86f20b	0.016472837
205	0xbdad8841	-0.08473254
206	0xbe0843fa	-0.13307181
207	0xbdb9c0d7	-0.090699844
208	0xbd0b4fc5	-0.03401162
209	0x3d8a4f80	0.06753445
210	0x3d92f6f3	0.07176008
211	0x3e5889f0	0.21146369
212	0x3e8fb74a	0.28069526
213	0x3e833cd7	0.25632355
214	0x3df62308	0.120184004
215	0xbd0d4aff	-0.03449535
216	0x3e074a24	0.13211876
217	0x3dca2ee6	0.098722264
218	0x3e2600e2	0.16211274
219	0xbc0c7bc4	-0.00857443
220	0xbdd6447b	-0.1046228
221	0x3db45230	0.088047385
222	0x3da3bf43	0.07995465
223	0xbd33a7eb	-0.04386131
224	0x3cd42ebc	0.025901191
225	0x3d38153f	0.044942137
226	0xbe183afc	-0.14866251
227	0xbd0ecab0	-0.034861267
228	0xbe11291f	-0.14175843
229	0x3c7597af	0.0149897775
230	0x3d2143df	0.039371368
231	0x3df72edd	0.12069485
232	0x3e37f646	0.1796504
233	0x3e24ddd2	0.16100243
234	0x3d9eb0b5	0.07748548
235	0xbc8b70f7	-0.01702164
236	0x3d207dcd	0.039182473
237	0x3df6e2f3	0.12055006
238	0x3e4118a4	0.18857056
239	0x3dce16d9	0.100629516
240	0xbe740c94	-0.23832923
241	0xbda8aa52	-0.08235611
242	0xbdb205f5	-0.086925425
243	0xbdd09cf9	-0.1018619
244	0xbe6f1b2f	-0.23350213
245	0xbdc14d42	-0.09438564
246	0xbe7a7b54	-0.24461108
247	0xbe6709ac	-0.22562283
248	0xbd4defed	-0.05027764
249	0xbdd301ff	-0.10303115
250	0x3dcd4662	0.1002319
251	0x3d3c103c	0.04591392
252	0xbd13a65e	-0.036047332
253	0x3da7c541	0.0819192
254	0xbc9e8671	-0.019351216
255	0x3dfe5f81	0.1242056

conv1.bias f4 [6]
0	0xbdcc4f4b	-0.099760614
1	0x3e154898	0.14578474
2	0xbe93d29b	-0.28871617
3	0xbec43fb4	-0.38329852
4	0xbe9845b4	-0.2974068
5	0x3e2573ba	0.16157427

conv2.weight f4 [16, 6, 5, 5]
0	0xbdc5de1b	-0.09661504
1	0xbd2d3a69	-0.042292032
2	0x3d7f79f2	0.062372155
3	0xbcd0c1c3	-0.025483018
4	0xbc846122	-0.016159598
5	0xb99167ba	-0.00027733837
6	0xbdb1bb60	-0.08678317
7	0xbabbb871	-0.0014321936
8	0x3da38445	0.07984213
9	0xbbdd449a	-0.0067525627
10	0xbd815f9d	-0.06317065
11	0x3d034352	0.032046624
12	0xbcde2335	-0.027116397
13	0xbdaadc22	-0.08342768
14	0xbd38f765	-0.04515781
15	0xbd00b43e	-0.031421892
16	0x3dab2e93	0.08358493
17	0x3cb21256	0.021737259
18	0xbdb05427	-0.08609801
19	0xbdbd4e13	-0.09243407
20	0x3de9e7b7	0.11421149
21	0x3d433d78	0.047666043
22	0xbd234034	-0.03985615
23	0xbdb1dd82	-0.086848274
24	0xbe15ef69	-0.14642109
25	0x3d2a7840	0.041618586
26	0xbcdb0c19	-0.026739167
27	0xbcebb663	-0.028773492
28	0xbc299183	-0.010349634
29	0x3e321e0b	0.17394273
30	0x3c16dff0	0.009208664
31	0x3d957c7b	0.072991334
32	0x3db4249c	0.08796045
33	0x3dd7eb49	0.10542924
34	0x3dfc65ee	0.12324129
35	0xbcbf7e74	-0.023375727
36	0x3d27c3c3	0.040958177
37	0x3c1dd238	0.00963264
38	0x3e0cbb06	0.13743219
39	0x3e04f04c	0.12982291
40	0xbd41b6e3	-0.047293555
41	0xbd1fce99	-0.039015386
42	0x3b90034d	0.0043949247
43	0x3dd2cf0f	0.102933995
44	0x3d5365e9	0.05161086
45	0x3d5bf01f	0.053695794
46	0xbcebd7e7	-0.028789474
47	0xbd40d14d	-0.047074605
48	0x3d57173b	0.05251239
49	0xbc780725	-0.015138422
50	0x3b841661	0.004030988
51	0xbcd55603	-0.02604199
52	0xbc88a795	-0.016681472
53	0xbdf4a869	-0.11946184
54	0xbdb413a6	-0.0879281
55	0xbd83fdbe	-0.06444882
56	0x3d314d60	0.04328668
57	0xbdbdf16e	-0.09274565
58	0x3cffce0d	0.031226182
59	0x3984e447	0.00025347082
60	0xbd10fb9c	-0.035396203
61	0x3ca8003d	0.020507926
62	0xbdab51c0	-0.08365202
63	0xbd940034	-0.07226601
64	0xbda86218	-0.08221835
65	0xbdb739a0	-0.08946538
66	0x3c488f7b	0.01224124
67	0xbca7f652	-0.020503197
68	0xbd7b62d0	-0.06137353
69	0xbdab45e6	-0.083629414
70	0xbcbe4eaf	-0.023230879
71	0xbd85a247	-0.065250926
72	0xbc931814	-0.017955817
73	0xbb69694b	-0.0035615738
74	0xbdbc2628	-0.09186965
75	0x3d1a894c	0.037728593
76	0x3bf905c3	0.007599564
77	0xbda2291a	-0.07917996
78	0xbbade8e6	-0.0053073047
79	0x3c9d931b	0.019235184
80	0x3d684ac4	0.056711927
81	0xbdd00ef1	-0.101591
82	0xbcc94dd5	-0.024573246
83	0xbd2821d9	-0.041047905
84	0xbc85887f	-0.016300438
85	0x3c326bde	0.010889975
86	0xbd002430	-0.03128451
87	0xbdc20146	-0.09472899
88	0xbddf12e1	-0.10892273
89	0xbdbabeb0	-0.09118402
90	0xbcbe02df	-0.023194728
91	0xbcc02fbc	-0.023460262
92	0xbdcfbe09	-0.10143668
93	0xbd85353b	-0.065042935
94	0xbd54a4e7	-0.051915076
95	0xbdb59f8a	-0.0886832
96	0x3c770f97	0.0150794005
97	0xbd8591c7	-0.065219454
98	0xbd39e990	-0.04538876
99	0x3c5bcdb6	0.0134157445
100	0x3d29378c	0.04131274
101	0x3dd5fd99	0.104487605
102	0x3c855adf	0.016278682
103	0xbcb84527	-0.022493912
104	0xbd7b66eb	-0.061377447
105	0x3d262096	0.04055842
106	0x3c78395a	0.015150392
107	0x3d8c52df	0.06851744
108	0x3d5f2963	0.05448283
109	0xbd03b9cf	-0.032159623
110	0x3dbca7ad	0.09211669
111	0xbc874dca	-0.016516585
112	0xbcc267f3	-0.023731207
113	0x3da352e1	0.07974792
114	0xbd8dcb2f	-0.0692352
115	0x3cbf40a0	0.023346245
116	0x3d2526bf	0.040320154
117	0xbd9293ac	-0.071570724
118	0xbcce01e7	-0.025147391
119	0xbd25bc99	-0.040463064
120	0x3b4520e2	0.0030079414
121	0xbbca6e7e	-0.0061777225
122	0x3d2023d5	0.039096672
123	0xbd70993e	-0.058739893
124	0xbd624cfb	-0.055249196
125	0xbd6ab158	-0.057298034
126	0xbdb71695	-0.08939854
127	0xbd6d6008	-0.05795291
128	0xbd23c467	-0.039982226
129	0x3c326a83	0.010889652
130	0xbd60918a	-0.054826297
131	0xbd8f25ad	-0.06989608
132	0xbdd935e0	-0.10605979
133	0x3cf66da6	0.030081581
134	0x3d43979a	0.047752
135	0xbd6720da	-0.056427814
136	0xbd57ae45	-0.05265643
137	0x3cb23dad	0.021757925
138	0x3d551093	0.05201776
139	0x3ddadf51	0.106871255
140	0xbc34c773	-0.0110338805
141	0xbc776792	-0.015100377
142	0x3d2625b8	0.040563315
143	0x3dc27f0d	0.09496889
144	0x3c2f1133	0.010685253
145	0x3c588e71	0.013217554
146	0x3ddb7c92	0.10717119
147	0x3deb8f91	0.115019925
148	0xbd4dac33	-0.05021305
149	0x3db72b81	0.089438446
150	0x3df59266	0.11990814
151	0x3c8b9052	0.01703659
152	0x3d82532d	0.06363521
153	0x3e1b6521	0.15175296
154	0x3d42cdfb	0.04755972
155	0x3e1abe43	0.15111642
156	0x3d06c3d7	0.03290161
157	0x3df05b93	0.117362164
158	0x3dd526a6	0.10407762
159	0x3ba7164a	0.0050990926
160	0x3e396a0c	0.1810686
161	0xbcaba856	-0.020954292
162	0xbc597483	-0.013272407
163	0x3e2e6297	0.17029797
164	0x3d84fdc8	0.064937174
165	0x3d98fbd4	0.074699074
166	0x3deeaeaf	0.11654412
167	0x3c1af781	0.009458424
168	0x3de5de4a	0.11224039
169	0x3d9919fe	0.07475661
170	0xbd8d7928	-0.06907874
171	0x3df5eff2	0.120086566
172	0x3dade150	0.084902406
173	0x3bcda6e4	0.0062759984
174	0x3dc30928	0.09523231
175	0x3c436190	0.011925116
176	0xbcd28af4	-0.025701024
177	0x3c86f11e	0.016472396
178	0xbd20f637	-0.03929731
179	0xbab9e8ff	-0.0014183818
180	0xbd20a155	-0.03921636
181	0x3d12d2cb	0.03584556
182	0x3cd76ada	0.026296068
183	0xbda80579	-0.08204169
184	0xbd794428	-0.060856014
185	0xbd8f4038	-0.06994671
186	0xb94af2f6	-0.00019354731
187	0xbce136d1	-0.027491959
188	0xbd565619	-0.052328203
189	0x3cd3add1	0.025839718
190	0xbd3233a1	-0.04350627
191	0xbd96b5f5	-0.07358924
192	0xbc9ecd84	-0.019385107
193	0x3cf9e656	0.03050534
194	0xbcfacc15	-0.030614892
195	0x3c9de5da	0.01927464
196	0x3c9ad2c4	0.018899329
197	0xbd807a12	-0.06273283
198	0xbbb0496d	-0.005379847
199	0x3d0082a3	0.031374585
200	0x3d344610	0.04401213
201	0x3da96b9d	0.08272479
202	0x3d4127f8	0.047157258
203	0xbc6a4270	-0.0142980665
204	0xbca55a63	-0.020184701
205	0x3d1b4faf	0.03791779
206	0x3d7a238e	0.061069064
207	0xbd3d85c6	-0.046270154
208	0x3b32f6ed	0.0027307824
209	0xbd4dcbbc	-0.050243124
210	0x3b763f52	0.0037574363
211	0xbd0ac8ef	-0.03388303
212	0xbce8b06e	-0.02840444
213	0xbcdfb03f	-0.02730572
214	0xbcdf8d97	-0.027289195
215	0x3c2cf6c7	0.010556883
216	0xbbebd4a4	-0.0071969796
217	0xbddc48e0	-0.10756087
218	0x3bfb52a4	0.0076697636
219	0xbcaf076a	-0.02136584
220	0xbd4b73c1	-0.04967094
221	0xbd27efcc	-0.041000172
222	0xbdc10af3	-0.094259165
223	0xbe0f47b0	-0.1399219
224	0xbd4708c6	-0.04859235
225	0xbd29a4c5	-0.041416902
226	0xbd34d698	-0.044149965
227	0x3d852a08	0.065021574
228	0xbd9715ee	-0.0737723
229	0xbd416059	-0.047211025
230	0xbd8e940f	-0.06961834
231	0xbd80aca3	-0.06282928
232	0xbc8e3f2f	-0.017364113
233	0x3ce60bb7	0.028081758
234	0xbcc2816d	-0.023743356
235	0xbda2f434	-0.07956734
236	0xbdc237d4	-0.094833046
237	0xbdc4c837	-0.096085005
238	0xbc897d17	-0.01678328
239	0x3dafb49a	0.08579369
240	0xbd906503	-0.070505165
241	0xbd3d81a3	-0.04626621
242	0xbde071b1	-0.10959185
243	0x3cd11a55	0.025525251
244	0x3d806197	0.06268614
245	0x3cf3d3d4	0.029764093
246	0xbda401d1	-0.08008159
247	0xbdb58e26	-0.08865003
248	0xbc74cc3d	-0.014941272
249	0xbcb43b9b	-0.022001078
250	0x3d4d2498	0.050083727
251	0x3db2da7b	0.08733078
252	0x3d880feb	0.06643661
253	0x3c2fbe71	0.010726557
254	0xbda4525c	-0.08023521
255	0xbc28136e	-0.010258539

conv2.bias f4 [16]
0	0x3d524ae5	0.051340956
1	0x3d1f2400	0.03885269
2	0xbd96b436	-0.07358591
3	0xbe5176e0	-0.20455503
4	0xbecfd88a	-0.40594894
5	0x3e53fadd	0.20701165
6	0xbe8f4256	-0.27980298
7	0x3e448932	0.19192961
8	0x3a9b303b	0.0011839935
9	0xbd0c23be	-0.034213774
10	0x3d928c5d	0.071556784
11	0x3ec1f126	0.37879294
12	0xbe33726f	-0.17524122
13	0xbe1ce0ec	-0.15320176
14	0x3d8fd7dc	0.07023594
15	0x3c67e0c9	0.014152714

conv3.weight f4 [32, 16, 3, 3]
0	0xbd13f216	-0.036119543
1	0x3b0186be	0.001976415
2	0x3d6f510a	0.058426894
3	0x3db10db4	0.08645192
4	0xbd2c0207	-0.04199412
5	0x3d5ed196	0.054399095
6	0x3d90b9e1	0.070667036
7	0xbd2fd7e0	-0.042930484
8	0xbdaee248	-0.085392535
9	0xbd80006e	-0.06250082
10	0x3d54954d	0.051900197
11	0x3caf42e0	0.021394193
12	0xbd03ed5e	-0.032208793
13	0x3c1f9b59	0.009741628
14	0xbb9ecf82	-0.004846514
15	0xbd0a2414	-0.033725813
16	0x3d177132	0.036973186
17	0xbc8a6e6a	-0.016898353
18	0xbd91a50d	-0.07111559
19	0xbd39e95e	-0.045388572
20	0x3d921b26	0.071340844
21	0xbc5fd623	-0.013661894
22	0xbd29e5af	-0.04147881
23	0x3d385935	0.04500695
24	0xbd934403	-0.071907066
25	0xbd594aef	-0.053049978
26	0xbd3c5166	-0.045976065
27	0x3d84f183	0.06491377
28	0xbd225a9b	-0.03963719
29	0xbd5b72e2	-0.053576358
30	0x3db5017b	0.08838173
31	0x3db03a93	0.08604922
32	0xbcfe4922	-0.031040732
33	0x3da8f62e	0.0825008
34	0x3d3a7e58	0.045530647
35	0x3d604693	0.054754805
36	0x3d850822	0.06495692
37	0xbd4c11bb	-0.049821597
38	0x3c0eb2f6	0.00870966
39	0xbd061872	-0.032738157
40	0x3d4ea07b	0.050446015
41	0x3c0511a0	0.008121878
42	0xbd676cea	-0.056500353
43	0x3d9b056a	0.07569392
44	0x3cddee0a	0.027091045
45	0xbcbc54af	-0.022989599
46	0x3d25e1c8	0.040498525
47	0xbd07672c	-0.033057377
48	0x3da68591	0.081309445
49	0x3dd094af	0.10184609
50	0x3d3d64fa	0.046238877
51	0x3d8a58c6	0.067552134
52	0xbd630c6c	-0.05543177
53	0xbd1770c6	-0.036972784
54	0x3cc1dd0f	0.02366498
55	0x3d949732	0.07255401
56	0xbd994df9	-0.07485575
57	0xbc1dcd87	-0.009631521
58	0x3d2cb915	0.042168695
59	0x3d6dfe26	0.058103703
60	0xbd2e46a6	-0.042547844
61	0xbca2185b	-0.019787004
62	0xbd8351bd	-0.06412075
63	0xbba220f9	-0.0049477783
64	0x3d6e6711	0.05820376
65	0xbcb1b7c4	-0.021694072
66	0x3cb8ea72	0.02257273
67	0xbd9103f6	-0.070808336
68	0x3d020546	0.03174331
69	0xbdb14b5d	-0.086569525
70	0x3ce1c69d	0.027560527
71	0xbd31d35f	-0.04341447
72	0x3d4b79a1	0.04967654
73	0xbd912f18	-0.070890605
74	0x3cd89bbd	0.02644145
75	0x3d95886e	0.073014125
76	0x3d8b3618	0.06797427
77	0x3d887470	0.06662834
78	0x3d8e7dad	0.069575645
79	0x3c4ee610	0.012628093
80	0x3cdcf315	0.02697138
81	0xbd3e380b	-0.046440165
82	0x3c34f7ac	0.011045378
83	0x3c088437	0.008332304
84	0xbce00ccc	-0.027349852
85	0xbc5470f3	-0.012966382
86	0xbd835ccf	-0.06414186
87	0xbb7290a6	-0.0037012487
88	0xbbd291be	-0.006426065
89	0xbd12f0d7	-0.035874214
90	0xbae6c0c3	-0.0017605055
91	0x3ccbc31d	0.02487331
92	0xbc16596e	-0.009176595
93	0x3d62e4ab	0.055393856
94	0xbcf7ff3a	-0.030273069
95	0x3d765913	0.06014354
96	0xbd5030bf	-0.050827738
97	0x3b699158	0.003563961
98	0x3bffe1bb	0.0078088916
99	0xbdbc0580	-0.091807365
100	0x3d88855d	0.06666062
101	0xbd3a2f69	-0.04545537
102	0xbcc37822	-0.023860995
103	0xbd0225a1	-0.031774167
104	0x3d98c837	0.07460063
105	0xbd12696a	-0.035745062
106	0xbd26212d	-0.040558983
107	0xbc5dd9d0	-0.0135407
108	0x3b470b72	0.0030371812
109	0xbd372588	-0.044713527
110	0x3d517351	0.051135365
111	0xbcf81ac7	-0.030286206
112	0x3ce346a2	0.027743641
113	0xbd4d428c	-0.050112292
114	0x3c16e655	0.009210189
115	0x3d812a79	0.06306929
116	0x3d8c0567	0.06836968
117	0x3bc4bd24	0.0060039926
118	0xbce6718b	-0.028130313
119	0x3d4371fc	0.047716126
120	0x3dc73745	0.09727339
121	0xbd515095	-0.05110224
122	0xbd26eb92	-0.040752
123	0x3c6fae91	0.014629022
124	0xbd76b67f	-0.060232636
125	0x3c5fc830	0.013658568
126	0x3d94fcba	0.07274766
127	0xbd291a34	-0.041284755
128	0x3d9678aa	0.073472336
129	0x3cd248f1	0.025669547
130	0x3d63aa36	0.055582248
131	0x3da1a19a	0.07892151
132	0xbd037460	-0.032093406
133	0x3d2ba936	0.04190942
134	0xbc166629	-0.00917963
135	0xbd408055	-0.046997387
136	0x3a9a5cf0	0.0011776965
137	0x3c83ae70	0.01607439
138	0x3bfd77f1	0.0077352454
139	0xbd30cd5f	-0.043164607
140	0xbd131114	-0.03590496
141	0x3c601c22	0.013678582
142	0x3daf322b	0.08554491
143	0xbd2f93ee	-0.042865686
144	0xbc8e29e7	-0.017353965
145	0x3d99e7bc	0.07514903
146	0xbd2fe315	-0.04294117
147	0x3cadaf67	0.021201802
148	0x3ce153b9	0.027505742
149	0xbce337a2	-0.027736489
150	0x3e09af5f	0.13445805
151	0x3d0393ef	0.032123502
152	0x3c4c8f69	0.0124853635
153	0xbdefdf61	-0.11712528
154	0xbb81dd38	-0.003963139
155	0x3c822a17	0.01588921
156	0x3d26ef91	0.040755812
157	0x3da354e2	0.079751745
158	0x3e33accf	0.1754639
159	0xbd43a287	-0.04776242
160	0x3e1c6513	0.15272932
161	0x3e507120	0.20355654
162	0x3d4796da	0.048727848
163	0x3d8d851a	0.06910153
164	0xbd32de07	-0.043668773
165	0x3dc07bc6	0.09398608
166	0x3e1d1a7b	0.15342133
167	0x3c759998	0.014990233
168	0xbda71566	-0.08158378
169	0xbccde567	-0.025133802
170	0x3d431de5	0.04763593
171	0xbd83f0f0	-0.064424396
172	0xbdcc0320	-0.099615335
173	0xbc69eeb7	-0.014278105
174	0x3d4e225c	0.050325736
175	0xbe08e2b4	-0.1336773
176	0xbd1c95f9	-0.038228963
177	0x3d8bb66a	0.06821902
178	0x3e19a5ae	0.15004608
179	0x3cdc4044	0.026886113
180	0x3d9d6a1a	0.07686253
181	0x3da85086	0.082184836
182	0x3d62f5ec	0.05541031
183	0x3dd877c9	0.10569722
184	0x3dd19e01	0.10235215
185	0x3dd36e34	0.10323754
186	0xbcac3b3f	-0.021024344
187	0x3d02056c	0.031743452
188	0x3dc0fcaa	0.09423192
189	0xbdb865bb	-0.090037785
190	0x3db9756c	0.090555996
191	0xbd1337bc	-0.035941824
192	0xbcdc71dd	-0.026909763
193	0x3dcd2499	0.10016746
194	0x3da84c7a	0.08217712
195	0x3d3ffb6c	0.046870634
196	0x3db70506	0.08936505
197	0x3df6a06b	0.12042316
198	0x3e70a1a8	0.23499167
199	0x3e24edfb	0.16106407
200	0x3e80c8fe	0.25153345
201	0xbc370492	-0.011170523
202	0x3c9de880	0.019275904
203	0x3cf0841f	0.029359875
204	0x3d8bf5b2	0.06833972
205	0xbe0c5891	-0.1370566
206	0xbdebaba2	-0.11507346
207	0xbc16a724	-0.009195123
208	0x3d87aadb	0.06624385
209	0x3d78244c	0.06058149
210	0xbc13a90d	-0.009012473
211	0x3d0d7321	0.034533624
212	0xbc046cd0	-0.008082584
213	0x3d602103	0.054718982
214	0xbc2059a5	-0.009786998
215	0x3d24ee65	0.040266413
216	0xbd92f8ea	-0.07176383
217	0xbe0a7509	-0.13521208
218	0xbdacffb0	-0.08447206
219	0x3c0f52c0	0.0087477565
220	0xbe0c4d53	-0.13701372
221	0xbc4ec155	-0.012619336
222	0xbd9d8f92	-0.076933995
223	0x3c2df45d	0.010617343
224	0x3cac9305	0.021066198
225	0x3d287702	0.04112912
226	0xbe117907	-0.14206325
227	0x3c92ee5d	0.017935926
228	0x3cfc4bc4	0.030797847
229	0xbcf16620	-0.029467642
230	0xbdb6db6b	-0.089285694
231	0x3ce4d7a6	0.02793486
232	0xbd1bff6b	-0.038085382
233	0x3d15992f	0.03652304
234	0xbd81ad90	-0.063319325
235	0xbddc5392	-0.10758127
236	0xbd86c583	-0.06580641
237	0x3b70456e	0.0036662477
238	0xbd2c7613	-0.04210479
239	0x3deea8ce	0.11653291
240	0xbd851767	-0.06498604
241	0x3dc3f63d	0.095684506
242	0x3d86ebe2	0.0658796
243	0xbdbdaf9f	-0.09262013
244	0xbdcea910	-0.1009084
245	0xbe03f1a9	-0.12885155
246	0xbe0815ff	-0.13289641
247	0x3d6b5210	0.057451308
248	0xbdda8735	-0.1067032
249	0xbdd5caeb	-0.10439094
250	0xbc077a9b	-0.0082689775
251	0xbd3743e7	-0.04474249
252	0x3db08b52	0.08620323
253	0x3d9cbdf5	0.07653419
254	0xbc1bfb25	-0.009520327
255	0x3cc90098	0.024536416

conv3.bias f4 [32]
0	0xbd9c25b9	-0.076243825
1	0xbeebe993	-0.4607664
2	0x3ecab017	0.3958747
3	0x3d6a0ced	0.057141233
4	0xbd99b3c9	-0.075049944
5	0x3c6e909a	0.014560843
6	0xbe0dd4a9	-0.13850655
7	0xbd2f2536	-0.042760096
8	0x3d9482dd	0.07251523
9	0xbc8aae3c	-0.016928785
10	0x3e5ac415	0.21363862
11	0xbd2046f1	-0.039130155
12	0x3e087e08	0.13329327
13	0xbd88a58b	-0.066722
14	0xbd377f0d	-0.0447989
15	0xbda6c0ca	-0.0814224
16	0xbdc8be25	-0.09801892
17	0xbda021cb	-0.078189455
18	0xbd4e1879	-0.050316308
19	0xbd66bb6b	-0.05633108
20	0x3eb631b4	0.35584795
21	0xbdb1fb94	-0.08690563
22	0xbe2ffb1e	-0.17185637
23	0xbdcd1d09	-0.10015304
24	0x3c0d16a8	0.008611359
25	0x3d972645	0.07380346
26	0xbcf66966	-0.030079555
27	0xbdc8d112	-0.09805502
28	0x3d237dc8	0.039914876
29	0xbcc93377	-0.024560673
30	0x3d8a359e	0.06748508
31	0x3e0a5367	0.13508378

fc1.weight f4 [120, 288]
0	0xbd80f5c0	-0.06296873
1	0xbcaeb005	-0.021324167
2	0xbd65d88f	-0.05611473
3	0x3d29afde	0.041427486
4	0x3d2fa172	0.042878576
5	0x3ca5c10a	0.02023365
6	0xbd85d75d	-0.06535218
7	0x3d4041bf	0.0469377
8	0xbd411c43	-0.047146093
9	0xbd7d47c4	-0.06183602
10	0x3b0d697c	0.0021577766
11	0xbaac9cfd	-0.0013169345
12	0xbdaecaad	-0.08534751
13	0x3ab610e3	0.0013890531
14	0x3d5b25fa	0.053503014
15	0xbbe485d4	-0.0069739614
16	0x3ce01b8f	0.027356891
17	0x3c2d6972	0.010584222
18	0x3d3f072f	0.04663771
19	0x3d800538	0.062509954
20	0x3ce130a5	0.027489016
21	0x3c082167	0.008308745
22	0x3cf203c6	0.029542815
23	0x3d12f0e7	0.035874274
24	0xbc5075ee	-0.012723429
25	0xbcf1ea25	-0.029530594
26	0x3cab9d57	0.020949049
27	0x3b51a55e	0.0031989436
28	0xbb7f1f75	-0.0038928662
29	0x3c89ca60	0.016820133
30	0x3c67f015	0.014156361
31	0x3d769eed	0.060210157
32	0x3cf972cf	0.030450253
33	0xbc8d9166	-0.017281245
34	0xbd28abdc	-0.041179523
35	0x3d033e20	0.03204167
36	0xbb8beadc	-0.004269941
37	0x3c84076c	0.01611682
38	0x3d1590b7	0.036514964
39	0x3c8b6f83	0.017020946
40	0xbd2362d1	-0.03988916
41	0x3cba87ab	0.02276977
42	0x3d1e0e08	0.0385876
43	0x3d607ab7	0.05480453
44	0x3d4c8ed1	0.049940888
45	0x3c8c9248	0.017159596
46	0x3c670d22	0.014102252
47	0x3cd7853c	0.026308648
48	0xbcb6b085	-0.022300968
49	0x3d549155	0.051896412
50	0x3b53ce8d	0.0032319159
51	0x3cd59b9d	0.026075179
52	0xbcc1760f	-0.023615865
53	0x3d653e3a	0.055967547
54	0xbd7d94a1	-0.06190932
55	0x3d2cfb91	0.0422321
56	0x3a74fb74	0.0009345331
57	0x3d001905	0.03127386
58	0xbd50e96e	-0.051003866
59	0x3ceb86d6	0.028750818
60	0xbcb8ddac	-0.022566639
61	0x3ca9336c	0.020654403
62	0x3d75c584	0.06000282
63	0x3ac20864	0.0014803526
64	0x3c59d01b	0.013294245
65	0xbb87ec34	-0.0041480307
66	0x3cc56305	0.024095068
67	0xbc474cf9	-0.012164348
68	0xbcc9f9d2	-0.024655256
69	0x3d4a67bf	0.049415346
70	0x3ce0b8e1	0.027431907
71	0xbc5bde4e	-0.013419701
72	0xbd288687	-0.04114392
73	0xbc67fcce	-0.014159394
74	0x3cc940de	0.024567064
75	0x3c9146d7	0.017733974
76	0xbd24cbb6	-0.040233336
77	0xbd6b2e22	-0.057417043
78	0xbcaea649	-0.021319525
79	0x3d76902e	0.060196094
80	0x3d00ebae	0.03147476
81	0x3bb7150e	0.0055872267
82	0x3d483769	0.04888097
83	0xbd48e177	-0.049043145
84	0x3d1122c1	0.035433535
85	0x3c2c8200	0.010529041
86	0x3b9d6eba	0.0048044594
87	0x3d25cc7e	0.040478222
88	0x3d677362	0.056506522
89	0xbbedf9b0	-0.007262431
90	0xbd97fb5e	-0.07420991
91	0x3cf6ad01	0.030111792
92	0x3cde0267	0.027100755
93	0xbcb9951d	-0.02265411
94	0xbd4fb948	-0.050713807
95	0xbd8fa46a	-0.07013781
96	0xbd3806f9	-0.044928525
97	0x3c584a21	0.013201267
98	0x3cf74f34	0.030189134
99	0xbd0a3b3d	-0.0337479
100	0xbd468cc5	-0.048474092
101	0x3d23eda7	0.040021565
102	0x3d68d78f	0.056846198
103	0xbcc4ae88	-0.024009004
104	0xbb7c678e	-0.0038513872
105	0xbd1462ef	-0.036227163
106	0xbd33516a	-0.043778814
107	0xbd2c4a1a	-0.042062856
108	0xbba9e962	-0.005185292
109	0x3d831773	0.06400957
110	0x3c8f64cc	0.017504118
111	0xbd729d49	-0.05923203
112	0xbcdff94f	-0.02734056
113	0x3c064fc5	0.0081977295
114	0xbcfb79c7	-0.030697716
115	0x3d263ca3	0.04058517
116	0xbc28955f	-0.010289519
117	0xbd2036b5	-0.039114673
118	0x3c48f0cb	0.012264441
119	0x3d234bdd	0.03986727
120	0xbd149e93	-0.03628404
121	0xbc04940c	-0.008091938
122	0xbd32cbdd	-0.04365145
123	0x3cef225f	0.029191194
124	0x3bfa3bae	0.007636509
125	0xbcec0f38	-0.02881585
126	0xbd241b88	-0.04006532
127	0x3ce36e9d	0.027762705
128	0xbba3ea69	-0.005002309
129	0x3bf9a21e	0.007618203
130	0xbd641881	-0.05568743
131	0xbd69e3b2	-0.057101913
132	0xbd6c4e7b	-0.057692032
133	0x3d3775c0	0.04479003
134	0xbcb5fc30	-0.022214979
135	0xbc898357	-0.01678626
136	0xbcddcb21	-0.027074398
137	0x3d422421	0.047397736
138	0xbd5cde90	-0.05392319
139	0x3d0a6ed1	0.03379709
140	0x3d606ef2	0.054793306
141	0x3c309d29	0.010779657
142	0xb9934c3c	-0.00028094824
143	0x3d568eaf	0.052382167
144	0x3cf76ecf	0.030204205
145	0x3ccf0f60	0.025275886
146	0x3cc5e8f6	0.024158936
147	0x3b9a97e7	0.004717815
148	0xbc4d1ce6	-0.012519097
149	0xbc229910	-0.009924188
150	0x3ca998c8	0.020702735
151	0x3d39559c	0.04524766
152	0xbd5dc002	-0.05413819
153	0xbd4975e1	-0.049184684
154	0xbc4da747	-0.012552089
155	0xbd14c230	-0.036318004
156	0xbbec51a5	-0.007211881
157	0xbd494a27	-0.049142983
158	0xbd52e24e	-0.051485352
159	0xba5e7131	-0.0008485495
160	0xbcb1d8b0	-0.02170977
161	0x3d3e7b02	0.04650403
162	0x3d08a666	0.033361815
163	0x3ca66bac	0.020315014
164	0x3d40ef6c	0.04710333
165	0x3d5d4b33	0.054026794
166	0x3d0670f7	0.032822575
167	0xbc5a2f1a	-0.013316894
168	0xbc6c4f91	-0.014423267
169	0xbd28e7b7	-0.041236605
170	0xbccf18c6	-0.025280368
171	0x3ce3fb87	0.027829899
172	0x3bc1678f	0.0059022377
173	0xbd681b20	-0.056666493
174	0xbb13c137	-0.0022545585
175	0xbd3eb366	-0.046557806
176	0xbd5aac23	-0.05338682
177	0xba911c98	-0.0011071144
178	0x3d0e40af	0.034729656
179	0x3c11e38f	0.008904352
180	0x3d95628a	0.072941855
181	0x3d7a752e	0.061146908
182	0x3c6a90a3	0.014316711
183	0x3d973744	0.07383588
184	0x3c2666ad	0.010156316
185	0x3cc6f638	0.024287328
186	0xbccf3a95	-0.025296489
187	0x3b1f1278	0.0024272483
188	0x3b4daff3	0.0031385391
189	0x3d31a5c5	0.04337098
190	0x3d03192c	0.032006428
191	0xbd91343d	-0.07090042
192	0x3d40609f	0.046967145
193	0xbc78f26c	-0.015194517
194	0x3ca033c6	0.019555937
195	0xbab68f35	-0.0013928177
196	0x3c81b529	0.015833454
197	0xbc7cd9aa	-0.0154327545
198	0x3d186f35	0.03721543
199	0x3d614cef	0.05500501
200	0x3c84e58e	0.016222741
201	0x3d4c4cdb	0.049877983
202	0x3cd8ba70	0.026456088
203	0x3d455160	0.04817331
204	0x3c90208f	0.01759365
205	0x3be9200e	0.007114417
206	0x3d24abc5	0.040202875
207	0xbd751178	-0.059831113
208	0xbd53f2a7	-0.051745083
209	0xbd22cb66	-0.039744757
210	0xbd187777	-0.037223306
211	0xbca8c305	-0.020600805
212	0xbd28a252	-0.041170426
213	0xbd0face4	-0.03507699
214	0x3ccc0b3f	0.024907706
215	0x3c58c4d2	0.013230519
216	0x3c7e782e	0.015531583
217	0xbd316ca0	-0.043316483
218	0x3d2a5351	0.041583363
219	0xbd018606	-0.031621955
220	0xbd4fb45e	-0.05070912
221	0x3d611db4	0.054959968
222	0xbd071564	-0.032979384
223	0xbd554ded	-0.05207627
224	0x3c84517d	0.016152138
225	0xbd7b1cb1	-0.06130666
226	0x3cf24e8b	0.029578468
227	0xbc992538	-0.018694505
228	0xbc9c37e3	-0.019069618
229	0xbc883ac7	-0.01662959
230	0x3d0722ec	0.03299229
231	0xbb827559	-0.003981274
232	0x3d401347	0.046893384
233	0x3d74c950	0.0597623
234	0x3d3a8d75	0.04554506
235	0xb76c7270	-1.4093341e-05
236	0xbcf7874e	-0.030215885
237	0xbd38104b	-0.044937413
238	0x3cc906a0	0.024539292
239	0x3d5327b6	0.051551543
240	0xbd403c32	-0.046932407
241	0x3d3b7bfd	0.04577254
242	0xbc8c8066	-0.017151069
243	0xbd4ea716	-0.050452314
244	0x3d149016	0.036270224
245	0x3bf92d16	0.0076042516
246	0x3d27f335	0.041003425
247	0x3d02bc9d	0.031918157
248	0xbba91611	-0.005160101
249	0x3ca33fbc	0.019927852
250	0xbd468330	-0.048464954
251	0x3d1d587a	0.038414456
252	0xbd6f6286	-0.05844357
253	0x3d2527e5	0.04032125
254	0xbd234214	-0.03985794
255	0xbd4fbfd7	-0.050720062

fc1.bias f4 [120]
0	0x3d98293f	0.07429742
1	0xbcdd9e61	-0.02705306
2	0x3d5fbebc	0.054625258
3	0xbdc869b7	-0.097857885
4	0xbd3d73dd	-0.046253074
5	0x3c51ef86	0.0128134545
6	0x3d7b9e0d	0.061430026
7	0xbc2900d4	-0.010315139
8	0xbd8823f5	-0.06647483
9	0x3c81eca4	0.01585991
10	0x3d1f2b01	0.03885937
11	0x3cb4ecab	0.022085508
12	0x3d6c13d1	0.057636086
13	0x3c9062aa	0.017625172
14	0xbba7f35b	-0.005125446
15	0xbb4eec70	-0.0031574033
16	0xbd307d99	-0.04308853
17	0x3d3927f0	0.045204103
18	0x3cc25b41	0.023725154
19	0x3d10d2b6	0.0353572
20	0x3caf69c2	0.021412734
21	0x3cace45d	0.021104986
22	0x3d6fdaa8	0.058558136
23	0x3d9ae6af	0.07563531
24	0xbd112535	-0.035435874
25	0xbc6a2e5d	-0.01429328
26	0x3d842819	0.064529605
27	0xbca54220	-0.020173132
28	0x3c22012e	0.009887977
29	0x3d1960b7	0.03744575
30	0xbd2f43c3	-0.042789232
31	0xb943bb8d	-0.00018666517
32	0x3c52a43b	0.012856538
33	0x3d91170c	0.07084474
34	0x3e0df880	0.13864326
35	0xbc9c24c8	-0.019060507
36	0x3c2bbdb0	0.010482237
37	0xbc7617ed	-0.015020353
38	0xbd84d533	-0.06485977
39	0x3d5704a5	0.052494664
40	0xbd9c336c	-0.076269954
41	0xbd31aa82	-0.0433755
42	0x3d3df8c3	0.046379816
43	0x3d827cb9	0.06371445
44	0x3ddba7ef	0.1072539
45	0x3daeee01	0.085414894
46	0xbdcb978c	-0.09941015
47	0xbd83eb2e	-0.06441341
48	0x3d4b9bc2	0.04970909
49	0xbd734fe2	-0.059402354
50	0xbb5ad87a	-0.003339319
51	0x3d9c30fd	0.07626531
52	0x3d10036d	0.035159517
53	0xbd4f370e	-0.050589614
54	0x3db2047a	0.0869226
55	0x3dd6729b	0.10471078
56	0x3d41f5cb	0.047353547
57	0x3d9f95d5	0.0779225
58	0xbc41fbc9	-0.011839815
59	0xbca50797	-0.02014522
60	0xbd268052	-0.04064972
61	0xbd52cd7f	-0.051465508
62	0xbcc73451	-0.024316939
63	0xbd75c93c	-0.060006365
64	0x3da7ce10	0.081936
65	0x3c41a239	0.011818462
66	0x3cc569c7	0.02409829
67	0xbd3f5290	-0.046709597
68	0x3d067d15	0.03283413
69	0x3da5d836	0.080978796
70	0x3ce7756c	0.028254233
71	0x3bc3e768	0.0059785135
72	0x3cf90f0f	0.030402688
73	0x3c8f34df	0.017481266
74	0x3a9658b4	0.0011470527
75	0xbd0ab35f	-0.033862468
76	0x3e526774	0.20547277
77	0x3ddd0c25	0.10793332
78	0x3e20da8b	0.15708368
79	0xbd66f8d9	-0.056389663
80	0xbd4bf20f	-0.049791392
81	0x3d1a79a4	0.03771366
82	0xbcc49492	-0.023996625
83	0xbd2a4ba2	-0.041576035
84	0x3c937bae	0.018003311
85	0xbd1fef0f	-0.039046343
86	0x3d9e7735	0.07737581
87	0x3df387d4	0.118911415
88	0xbcae9898	-0.021312997
89	0xbdd3f95f	-0.10350298
90	0xbcb8fe03	-0.02258206
91	0x3dbd9d51	0.09258521
92	0xbc44cc59	-0.012011611
93	0x3c921215	0.017830888
94	0x3db5f4c2	0.088845745
95	0x3c843a7b	0.016141167
96	0x3d7112ef	0.058855947
97	0x3d1f9c7e	0.038967602
98	0x3b66845a	0.0035174103
99	0x3c47de6b	0.012199025
100	0x3d478c63	0.048717868
101	0xbd2b0717	-0.04175481
102	0xbd6466b1	-0.055761997
103	0xbba3f016	-0.0050029857
104	0xbaf37d16	-0.0018576707
105	0xbbe8664b	-0.0070922724
106	0x3e21547b	0.15754883
107	0x3cff8a74	0.03119395
108	0x3d7c3392	0.06157262
109	0xbd6d925e	-0.058000915
110	0x3d1b4787	0.03791001
111	0xbd8d92ee	-0.0691279
112	0xbd3d47cc	-0.04621105
113	0xbd734339	-0.05939028
114	0xbc1fa0dd	-0.009742943
115	0x3d9c0258	0.076176345
116	0xbd23afeb	-0.03996269
117	0xbd3ec707	-0.046576526
118	0x3d39efdb	0.04539476
119	0xba6e0581	-0.00090797996

fc2.weight f4 [84, 120]
0	0xbd86967a	-0.0657167
1	0xbd73226a	-0.05935899
2	0xbda990a9	-0.08279545
3	0xbda0e51a	-0.07856198
4	0xbd69fe5a	-0.057127334
5	0x3b2788e0	0.0025563762
6	0xbdafea2a	-0.08589585
7	0xba5d4f80	-0.00084423274
8	0xbc3451c0	-0.011005819
9	0x3bc129e0	0.0058948845
10	0xbd1d4b5a	-0.03840194
11	0xbd807b58	-0.06273526
12	0xbdae04ec	-0.084970325
13	0xbd3ca137	-0.046052184
14	0xbd86fbfe	-0.065910324
15	0xbc9c1224	-0.019051619
16	0xbd98ff30	-0.07470548
17	0x3da7243e	0.081612095
18	0x3d7ef9e8	0.062250048
19	0xbdb95764	-0.090498716
20	0x3dab6158	0.08368176
21	0xbc5a56d0	-0.013326362
22	0x3d1984d8	0.037480205
23	0xbd1a2d03	-0.037640583
24	0x3d7391e4	0.059465304
25	0xbd896577	-0.06708806
26	0x3bffecc0	0.007810205
27	0x3d3a87d0	0.045539677
28	0xbdae6235	-0.08514825
29	0x3d6c0918	0.05762586
30	0xbce7e9e8	-0.028309777
31	0x3c1cf888	0.009580739
32	0xbd92de58	-0.07171315
33	0xbda537f2	-0.08067311
34	0xbc35fbf8	-0.011107437
35	0x3d612738	0.054969043
36	0xbd3e9d49	-0.046536718
37	0x3d3c3d90	0.045957148
38	0x3d865cc0	0.065606594
39	0xbd8668a3	-0.065629266
40	0xbd5801ba	-0.05273602
41	0xbd2a3e37	-0.04156324
42	0xbd07d667	-0.033163454
43	0x3d552460	0.052036643
44	0xbd4043cf	-0.046939667
45	0xbd7d1ae2	-0.061793216
46	0xbd2047ed	-0.039131094
47	0xbc5a0f00	-0.01330924
48	0xbd3f6783	-0.046729576
49	0x3c31ef08	0.010860212
50	0xbc304f00	-0.010761023
51	0x3d74ee9c	0.059797868
52	0x3ce96894	0.02849225
53	0xbd222386	-0.03958466
54	0x3da07ff2	0.07836904
55	0xbd841158	-0.064486206
56	0x3d0d2828	0.034462124
57	0x3cd06ea8	0.02544339
58	0x3ba4c030	0.0050277933
59	0xbd82100c	-0.06350717
60	0xbda668d1	-0.08125461
61	0xbdb3d0f6	-0.087800905
62	0xbcfe0922	-0.031010214
63	0x3d7c1c80	0.061550617
64	0xbc99c07c	-0.018768542
65	0x3d9d64f8	0.07685274
66	0xbcb38c04	-0.02191735
67	0x3da724fc	0.08161351
68	0xbd209b69	-0.03921071
69	0xbd51bde7	-0.051206496
70	0x3cc66b78	0.024221167
71	0xbba53e10	-0.005042799
72	0x3d5c6698	0.05380878
73	0xbdb53685	-0.088482894
74	0xbd04071d	-0.032233346
75	0x3d291220	0.04127705
76	0xbd785f9a	-0.060638048
77	0xbd3acbcf	-0.045604523
78	0xbc115af0	-0.008871779
79	0x3c82df98	0.015975758
80	0xbc1302f8	-0.008972876
81	0x3b1e0300	0.0024110675
82	0x3cb6da50	0.022320896
83	0xbc3327c8	-0.010934778
84	0xbd3c9655	-0.046041805
85	0xbcfa56ea	-0.030559022
86	0x3a2ed080	0.0006668642
87	0x3a18e380	0.000583224
88	0xbd494ef7	-0.049147572
89	0xbd9b7209	-0.0759011
90	0x3cd16078	0.025558695
91	0xbd2901a2	-0.041261323
92	0xbd27cb36	-0.04096528
93	0xbdba6d09	-0.09102828
94	0xbd6bbea6	-0.057554863
95	0x3d38d55c	0.04512535
96	0x3cf6be90	0.030120164
97	0xbda9e785	-0.08296112
98	0xbd199b08	-0.037501365
99	0xbc78c578	-0.015183799
100	0x3ae84880	0.0017721802
101	0xbdaf8acc	-0.08571395
102	0xbd92ee22	-0.071743265
103	0xbd9975b5	-0.07493154
104	0xbce7e10c	-0.028305553
105	0x3d62d1bc	0.0553758
106	0xbd4e1fcf	-0.050323304
107	0x3c9dfdb4	0.019286014
108	0xbd6476e0	-0.05577743
109	0x3d9f1772	0.07768144
110	0xbdb92f61	-0.0904224
111	0x3d870f16	0.06594674
112	0xbc535f18	-0.01290109
113	0x3d962d74	0.07332888
114	0xbd040864	-0.032234564
115	0x3d751c8c	0.059841678
116	0x3cc8fc00	0.024534225
117	0x3d0baa08	0.0340977
118	0xbdb140b5	-0.0865492
119	0x3d4cdeec	0.050017282
120	0xbd8ade4d	-0.06780682
121	0x3c8cb58d	0.017176414
122	0x3d27cb27	0.040965226
123	0x3d3aac6b	0.045574587
124	0x3d82e02c	0.06390414
125	0x3da30b39	0.07961125
126	0x3d414ea5	0.047194142
127	0x3bad66b1	0.005291783
128	0x3cf72201	0.030167582
129	0x3cc97fab	0.02459701
130	0xbcde05ac	-0.027102314
131	0xbcff869f	-0.031192122
132	0x3d816f42	0.06320049
133	0x3ce8af51	0.02840391
134	0x3cd78a59	0.026311086
135	0x3d2db114	0.042405203
136	0xbd9124f2	-0.07087125
137	0x3de07c31	0.10961188
138	0x3d016ec0	0.03159976
139	0xbd948eb8	-0.07253784
140	0x3cc58d31	0.024115177
141	0xbda1e245	-0.079044856
142	0xbb51fc5f	-0.0032041294
143	0xbda19011	-0.078888066
144	0xbc1931a6	-0.009350216
145	0xbd9fc44f	-0.07801115
146	0x3bc1388b	0.005896633
147	0x3d91b5b5	0.07114736
148	0x3cb90a27	0.022587849
149	0x3ddb7160	0.10714984
150	0x3c336b90	0.010950938
151	0x3d6667ca	0.056251325
152	0x3c0f4391	0.008744136
153	0xbcf99f63	-0.03047151
154	0x3d513ff9	0.0510864
155	0x3dd43cfb	0.103631936
156	0x3d6549ed	0.055978704
157	0xbdc6a41b	-0.096992694
158	0xbcbfac74	-0.023397662
159	0x3d39b1f8	0.04533574
160	0xbc3620e3	-0.011116239
161	0xbd414277	-0.047182526
162	0x3c9a2e2f	0.01882085
163	0xbc1d3f54	-0.009597618
164	0x3d9b7ede	0.07592557
165	0xbbc6387b	-0.0060492135
166	0x3d5540dd	0.05206381
167	0x3d88ef8d	0.06686316
168	0xbd1d01a3	-0.03833164
169	0x3d9ae323	0.07562854
170	0x3ca730ec	0.02040907
171	0x3d345122	0.044022687
172	0xbd82478e	-0.06361304
173	0x3d63aabe	0.055582754
174	0xbd99fd30	-0.07518995
175	0xbd880ef9	-0.06643481
176	0xbd9594ab	-0.07303747
177	0xbda5438e	-0.08069526
178	0x3d22218b	0.03958277
179	0x3b8a2c2b	0.004216691
180	0xbbb811d3	-0.005617359
181	0x3cef5d87	0.029219402
182	0x3ca146b5	0.019687036
183	0xbd58d302	-0.052935608
184	0xbd9e83d3	-0.07739987
185	0xbc059fb2	-0.00815575
186	0xbd269ff6	-0.040679894
187	0xbca8a536	-0.020586591
188	0xbd885008	-0.0665589
189	0xbc0ad778	-0.008474223
190	0xbdbb6a02	-0.09151079
191	0x3d8ce493	0.068795346
192	0x3d95ad15	0.073084034
193	0xbdc2a12c	-0.09503397
194	0x3d934846	0.071915194
195	0x3db320a7	0.08746462
196	0xbd36f6ec	-0.044669077
197	0xbcb41dc1	-0.021986844
198	0xbd6344ff	-0.05548572
199	0xbd657f86	-0.05602982
200	0x3d142d36	0.03617593
201	0xbbbc6e9b	-0.00575049
202	0x3d42cdd6	0.04755958
203	0x3dc854a0	0.09781766
204	0xbd13da5a	-0.03609691
205	0xbc83ea34	-0.016102888
206	0x3dea635d	0.11444733
207	0x3d00710d	0.031357814
208	0x3d85c1ac	0.065310806
209	0xbda6252c	-0.08112559
210	0x3cadab25	0.021199772
211	0x3d5228b4	0.05130835
212	0x3c141e81	0.009040476
213	0x3daf44f3	0.08558073
214	0xbdc7bc95	-0.09752766
215	0xbd07f502	-0.033192642
216	0x3d83928c	0.06424436
217	0xbd5f9588	-0.054585963
218	0xbd6ad2b5	-0.057329852
219	0x3c4079c4	0.011747781
220	0xbd7b8940	-0.06141019
221	0x3cd32610	0.025774986
222	0x3d19e861	0.03757513
223	0x3daefb87	0.08544069
224	0xbd11deb5	-0.03561278
225	0xbda0f373	-0.07858934
226	0x3cca490e	0.024693038
227	0x3e1ceb5d	0.15324159
228	0xbd972873	-0.07380762
229	0xbcf4cd6b	-0.029883107
230	0xbcf62b18	-0.030049846
231	0x3d734864	0.05939521
232	0x3dbe8941	0.09303523
233	0x3de320da	0.1109025
234	0xbd918d2a	-0.07107003
235	0x3c6aad44	0.014323536
236	0xbd8279da	-0.063708976
237	0xbdc242f2	-0.09485425
238	0x3d5a2720	0.05325997
239	0xbd0562cc	-0.032564923
240	0x3d031386	0.03200104
241	0x3bd9e0a5	0.006649094
242	0x3d184c22	0.03718198
243	0x3c2e571c	0.010640886
244	0xbd64f058	-0.055893272
245	0xbcb7de18	-0.02244477
246	0xbd95941f	-0.073036425
247	0x3cfe414e	0.031037
248	0xbd95cd87	-0.07314592
249	0x3d48df45	0.04904105
250	0xbd6409f7	-0.055673566
251	0xbd25ba68	-0.040460974
252	0x3bf1201c	0.007358564
253	0x3d906515	0.0705053
254	0xbb5d1aa8	-0.0033737812
255	0xbdc23431	-0.09482611

fc2.bias f4 [84]
0	0xbc495108	-0.012287386
1	0xbb8e7c50	-0.0043483153
2	0xbd8422ba	-0.06451936
3	0x3e0afb48	0.13572419
4	0x3e0f148a	0.13972679
5	0x3e41d3b6	0.18928418
6	0xbd94d6ec	-0.072675556
7	0xbd3ff7b4	-0.046867087
8	0x3e67576a	0.2259194
9	0x3e05fd22	0.13084844
10	0x3bbcd03d	0.0057621286
11	0x3dae5965	0.085131444
12	0xbdbe9c65	-0.09307174
13	0x3e91a719	0.28447798
14	0xbdb394a2	-0.08768584
15	0xbd4e7b59	-0.050410602
16	0xbd06af24	-0.03288187
17	0xbd088d76	-0.033338033
18	0x3cf82d04	0.030294903
19	0x3e8344f9	0.2563856
20	0xbbb258cd	-0.005442715
21	0x3d901a23	0.07036235
22	0xbd615578	-0.05501315
23	0xbe04ef34	-0.12981874
24	0x3d1945af	0.03741997
25	0xbc3f7f0d	-0.011688006
26	0xbe0ecb24	-0.1394468
27	0xbdcbb55b	-0.099467
28	0xbcccd018	-0.02500157
29	0xbdc58e39	-0.096462674
30	0xbd7b7693	-0.061392378
31	0x3c1fbf8d	0.009750259
32	0x3c009324	0.007847581
33	0x3dcbc3ad	0.099494316
34	0x3e1366ea	0.14394727
35	0xbdc84c40	-0.097801685
36	0xbd2ecbc4	-0.042674795
37	0x3d74a3f9	0.05972669
38	0xbd497a46	-0.049188875
39	0xbd286969	-0.041116152
40	0xbc4097a4	-0.011754904
41	0x3df6bb66	0.12047462
42	0xbdb77756	-0.089583084
43	0xbdadef35	-0.08492891
44	0x3d706f65	0.058699984
45	0x3d6557b9	0.055991862
46	0xbd0eb42f	-0.034839805
47	0x3c2f1166	0.0106853
48	0x3befb1f3	0.0073149144
49	0xbcdfbf50	-0.027312905
50	0xbd3c7f58	-0.046019882
51	0xbd2e3060	-0.042526603
52	0xbcb148a2	-0.02164108
53	0x3e1a8f09	0.15093626
54	0xbdbba143	-0.091616176
55	0x3dd2b34c	0.102881044
56	0x3dc2db25	0.09514455
57	0xbcb61bc9	-0.022230046
58	0x3e0e678b	0.13906686
59	0x3e025f94	0.12731773
60	0xbdcd0d68	-0.10012323
61	0xbcd423eb	-0.025896033
62	0xbe10cb20	-0.14139986
63	0xbc56c357	-0.013108096
64	0x3dc6df3e	0.09710549
65	0xbd972cb8	-0.07381576
66	0xbdb13b02	-0.08653833
67	0x3a4cf6ca	0.0007818757
68	0x3d04e452	0.032444306
69	0xbda0e69f	-0.078564875
70	0x3b46f1ef	0.0030356606
71	0x3d287ce5	0.041134734
72	0xbd2b0d0d	-0.041760493
73	0xbd4c6e2c	-0.049909756
74	0x3d7702e5	0.060305495
75	0xbd8dd56c	-0.069254726
76	0x3ddc1bce	0.10747491
77	0xbcaa2d3a	-0.020773519
78	0xbd7e50b2	-0.062088676
79	0x3daaf4e3	0.0834749
80	0x3e3f0085	0.18652542
81	0x3e4af816	0.198212
82	0x3e1468d7	0.14493118
83	0xbd15f238	-0.03660795

fc3.weight f4 [10, 84]
0	0x3d74717a	0.059678532
1	0xbd3732fa	-0.04472635
2	0xbafc0877	-0.0019228597
3	0xbdaa98a0	-0.08329892
4	0xbe502bde	-0.20329234
5	0xbdb742ac	-0.089482635
6	0x3d8ea31d	0.06964705
7	0x3e1c074f	0.15237163
8	0xbd619a0d	-0.055078555
9	0xbc010b19	-0.007876181
10	0x3d0c7e5e	0.0343002
11	0x3b113eef	0.0022162755
12	0xbb1c01fb	-0.0023804891
13	0xbe1d51ca	-0.15363231
14	0xbe0b619c	-0.13611454
15	0x3b46717b	0.0030280042
16	0xbd443858	-0.047905296
17	0x3cb39fa2	0.021926705
18	0xbc897d06	-0.016783249
19	0x3ea41ebc	0.32054698
20	0xbd9d6e0b	-0.07687005
21	0xbd133236	-0.035936557
22	0xbb833bee	-0.004004947
23	0xbcb53c03	-0.022123342
24	0xbb78244b	-0.003786343
25	0xbc0a1a9a	-0.008429194
26	0xbc7335de	-0.014844386
27	0xbc92b96f	-0.017910687
28	0x3c14a893	0.009073394
29	0x3dd4a070	0.103821635
30	0xbd7f7bba	-0.062373854
31	0x3e1d5384	0.1536389
32	0xbdcac97a	-0.0990171
33	0xbdf3bb15	-0.119009174
34	0x3e36995f	0.17831944
35	0xbd876086	-0.06610207
36	0xbde1505c	-0.110016555
37	0x3cabb366	0.020959567
38	0xbdc75cd7	-0.09734505
39	0x3b13df85	0.0022563648
40	0x3ce0d9c4	0.027447589
41	0xbdee65d7	-0.11640518
42	0x3d9c23c7	0.076240115
43	0x3e289e06	0.16466531
44	0x3e01f001	0.1268921
45	0xbe024b11	-0.12723948
46	0xbd42d317	-0.047564592
47	0xbd8c8f06	-0.06863217
48	0xbcab5b71	-0.020917626
49	0x3d639060	0.05555761
50	0x3d1dac5c	0.038494453
51	0x3cd9f2a3	0.026604956
52	0xbb860aa0	-0.004090622
53	0xbe354393	-0.17701559
54	0x3dfd4d2e	0.123682365
55	0x3e4cb2b5	0.19990046
56	0xbd4005a5	-0.046880383
57	0x3dd7f13d	0.105440594
58	0xbd93b1c0	-0.072116375
59	0xbe67a390	-0.22620988
60	0xbd0f753b	-0.03502391
61	0x3d53cdeb	0.05171005
62	0xbdb52d22	-0.08846499
63	0x3e3880c0	0.18017864
64	0xbdf5d8a4	-0.120042115
65	0xbda6b648	-0.08140236
66	0x3d320206	0.04345896
67	0xbd871cc0	-0.065972805
68	0x3cf8f237	0.030388935
69	0xbd97a521	-0.07404543
70	0xbda2af10	-0.07943547
71	0x3d9030e7	0.070405774
72	0x3dfabc9c	0.12243006
73	0xbd572016	-0.052520834
74	0x3bce6ee0	0.0062998384
75	0x3dc936aa	0.098248795
76	0x3db323f4	0.08747092
77	0x3d8ac3a5	0.067755975
78	0xbdc32574	-0.09528628
79	0x3e2a6cbf	0.16643046
80	0xbb42525c	-0.002965114
81	0xbdc204f6	-0.094736025
82	0x3e238f2e	0.15972587
83	0xbdd01a54	-0.10161272
84	0xbc073ee0	-0.008254737
85	0xbd91367b	-0.070904694
86	0xbde889b8	-0.11354393
87	0x3e4be26f	0.19910596
88	0xbd5a2775	-0.053260285
89	0xbe2f7b79	-0.17136945
90	0x3b1386e6	0.0022510826
91	0x3e442fd0	0.19158864
92	0xbdc4b709	-0.09605224
93	0xbe2e4868	-0.17019808
94	0xbcc8c2fe	-0.024507042
95	0xbd1e737e	-0.03868436
96	0x3dcc5667	0.099774174
97	0xbea9ea9b	-0.33186802
98	0x3e507d51	0.20360304
99	0xbd3024f6	-0.043004
100	0xbdcb056c	-0.099131435
101	0x3e56c90b	0.2097513
102	0x3e6c18d5	0.23056348
103	0x3dafe28c	0.08588132
104	0xbdacd671	-0.08439339
105	0x3d62dd78	0.05538699
106	0x3d336a37	0.043802466
107	0xbd81bc91	-0.06334794
108	0x3d5aed92	0.05344922
109	0x3dacd0f7	0.084382944
110	0xbd8ab002	-0.06771852
111	0x3e6568bf	0.22403239
112	0xbdf438a6	-0.11924867
113	0x3dbcda90	0.09221375
114	0xbbf7ea9c	-0.0075658094
115	0xbde46326	-0.111517236
116	0x3daf27ee	0.08552538
117	0x3df823e8	0.121162236
118	0x3ca03a4f	0.019559054
119	0x3d123ae6	0.0357007
120	0xbcb3ee99	-0.021964358
121	0x3d989899	0.07450981
122	0xbda495a8	-0.08036357
123	0x3df7df5d	0.1210315
124	0x3d3dad96	0.046308123
125	0xbd4e6a3e	-0.05039429
126	0x3c8d1867	0.01722355
127	0x3dfba2e8	0.12286931
128	0x3cf17518	0.02947478
129	0x3ca1db9f	0.019758044
130	0x3dc486f1	0.095960505
131	0xbbfb9954	-0.0076781902
132	0x3e1c562f	0.15267251
133	0x3da6043d	0.08106277
134	0x3e2215bf	0.15828608
135	0xbb7cdd15	-0.0038583924
136	0x3d7f2d52	0.06229908
137	0xbe1927c3	-0.14956574
138	0xbdce0fb5	-0.1006159
139	0x3e87521a	0.26429826
140	0xbe238ddb	-0.15972082
141	0x3e00767d	0.125452
142	0x3d3ba008	0.045806915
143	0xbe88509c	-0.26624
144	0x3de4608a	0.11151226
145	0x3d9ca46f	0.07648551
146	0x3d3cc4fa	0.04608629
147	0xbe0274ec	-0.12739915
148	0xbcfc20e1	-0.030777397
149	0x3cdb4cca	0.026770014
150	0xbd0840b0	-0.033264816
151	0x3b26c3a6	0.0025446205
152	0xbd0ece67	-0.03486481
153	0xbdda63a4	-0.10663536
154	0xbd26ddad	-0.04073875
155	0xbe39c43b	-0.18141262
156	0xbd8a4e61	-0.06753231
157	0xbc26d452	-0.010182457
158	0xbbfe0387	-0.0077518853
159	0x3d04183f	0.032249685
160	0xbd134d8f	-0.035962638
161	0x3e526ff5	0.2055052
162	0x3adca5bc	0.0016834061
163	0x3e2e11fa	0.16999045
164	0xbe76ac9d	-0.24089284
165	0xbe7792e5	-0.2417713
166	0xbe85c156	-0.26124066
167	0xbc74a897	-0.014932773
168	0x3da724e7	0.081613354
169	0xbdf148c1	-0.11781455
170	0xbd8abd37	-0.06774371
171	0x3de72874	0.11287013
172	0x3dbb46b5	0.09144346
173	0x3e0ea819	0.13931312
174	0x3c668b89	0.014071354
175	0xbbf32e75	-0.0074213096
176	0x3dbf62ca	0.093450144
177	0x3e2346ad	0.1594493
178	0x3daa1576	0.083048746
179	0x3e150726	0.14553508
180	0x3d493472	0.04912228
181	0x3e0d3a7d	0.13791843
182	0xbdc235bf	-0.094829075
183	0xbdad2dc5	-0.084559955
184	0x3dc83ead	0.097775795
185	0xbdc102f9	-0.09424395
186	0xbd1763dc	-0.036960468
187	0x3e032160	0.128057
188	0x3d08327e	0.033251278
189	0xbdb10cf2	-0.08645047
190	0x3dc088cc	0.09401092
191	0xbdc16510	-0.09443104
192	0xbd268da9	-0.04066244
193	0xbddee4ef	-0.10883509
194	0xbaebe62a	-0.0017997671
195	0xbe35b837	-0.17746054
196	0x3d1cf220	0.038316846
197	0x3d7acbfb	0.061229687
198	0xbd6b22c1	-0.05740619
199	0x3dcf72e9	0.10129339
200	0xbd95c59b	-0.07313081
201	0xbd832274	-0.06403056
202	0x3d3a13bb	0.045428973
203	0x3c5db90d	0.013532889
204	0xbda2796b	-0.07933315
205	0xbdc11e15	-0.09429566
206	0xbd9eb231	-0.07748831
207	0x3d04517e	0.03230428
208	0xbd0a4f1c	-0.03376685
209	0x3ce3af7b	0.027793637
210	0x3ac09989	0.0014694195
211	0x3c5788de	0.01315519
212	0x3e151b0d	0.145611
213	0xbd9809a1	-0.074237116
214	0xbe098e86	-0.13433275
215	0xbc5ff865	-0.013670062
216	0xbdc0bd48	-0.094111025
217	0x3db5bcc1	0.088738926
218	0x3c28ed8d	0.010310543
219	0xbb55ffc8	-0.0032653678
220	0xbce9cbb7	-0.028539522
221	0x3d37c512	0.044865675
222	0xbdc1c324	-0.09461048
223	0xbdd665c1	-0.10468627
224	0x3e033903	0.12814717
225	0xbda9d493	-0.082924984
226	0x3c9c124f	0.019051699
227	0xbced1eb7	-0.02894531
228	0xbdf711a1	-0.12063909
229	0x3dcb4d40	0.09926844
230	0xbe53eec4	-0.2069655
231	0x3da68fee	0.08132921
232	0x3d5dbdcc	0.054136083
233	0xbce73774	-0.028224684
234	0xbd4c8950	-0.04993564
235	0xbc627a36	-0.013823083
236	0x3d49c9db	0.04926477
237	0xbda5a9c4	-0.08089021
238	0xbca47f41	-0.02008021
239	0x3dd6176d	0.10453687
240	0x3e1dc08f	0.15405487
241	0x3d1db05e	0.038498275
242	0x3dfd7eb6	0.12377684
243	0x3d8b9b48	0.06816727
244	0x3dc48ce7	0.095971875
245	0x3d19da15	0.037561495
246	0xbd632621	-0.055456284
247	0xbdd6272a	-0.10456689
248	0x3e4f51ff	0.20246123
249	0x3e3d8394	0.18507224
250	0x3dc02c23	0.093834184
251	0x3ddf1cdd	0.10894177
252	0xbdcc6b66	-0.09981422
253	0x3e0a9ebc	0.13537115
254	0xbe0af1fa	-0.13568869
255	0xbd9882d0	-0.074468255

fc3.bias f4 [10]
0	0xbdeb53fe	-0.114906296
1	0xbea4e4e4	-0.3220588
2	0x3e845205	0.25843826
3	0x3e159dcd	0.14610977
4	0x3ea6e75b	0.32598385
5	0xbe7d08cb	-0.24710386
6	0x3eaac42d	0.33352795
7	0xbe91c2b4	-0.2846886
8	0x3cc67dd7	0.024229927
9	0xbe80215e	-0.25025457
